…
    "    loss.backward()\n",
    "    optimizer.step()\n",
    "    \n",
    "    if batch % 10 == 0:\n",
<<<<<<< HEAD
    "        outputs = net(test_inputs).view([-1,1]).cuda()\n",
    "        loss = criterion(outputs, test_labels).cuda()\n",
=======
>>>>>>> 1b2a70f0654dff9b5cdc68dc78486fef0376fe06
    "        print(batch / 10 + 1, \"% Trained\", \"loss = \", loss)\n",
    "\n",
    "print('Finished Training')"
   ]
  },
  {
   "cell_type": "code",
   "execution_count": 11,
   "metadata": {
    "scrolled": false
   },
   "outputs": [
    {
     "data": {
      "text/plain": [
       "Net(\n",
       "  (l1): Linear(in_features=12634, out_features=64, bias=True)\n",
       "  (l2): ReLU()\n",
       "  (r1): Res1d(\n",
       "    (l1): Conv1d(1, 4, kernel_size=(3,), stride=(1,), padding=(1,), bias=False)\n",
       "    (l2): InstanceNorm1d(4, eps=1e-05, momentum=0.1, affine=False, track_running_stats=False)\n",
       "    (r3): Conv1d(1, 4, kernel_size=(1,), stride=(1,), bias=False)\n",
       "    (r4): InstanceNorm1d(4, eps=1e-05, momentum=0.1, affine=False, track_running_stats=False)\n",
       "    (relu): ReLU()\n",
       "  )\n",
       "  (r2): Res1d(\n",
       "    (l1): Conv1d(4, 8, kernel_size=(3,), stride=(1,), padding=(1,), bias=False)\n",
       "    (l2): InstanceNorm1d(8, eps=1e-05, momentum=0.1, affine=False, track_running_stats=False)\n",
       "    (r3): Conv1d(4, 8, kernel_size=(1,), stride=(1,), bias=False)\n",
       "    (r4): InstanceNorm1d(8, eps=1e-05, momentum=0.1, affine=False, track_running_stats=False)\n",
       "    (relu): ReLU()\n",
       "  )\n",
       "  (r3): Res1d(\n",
       "    (l1): Conv1d(8, 8, kernel_size=(3,), stride=(2,), padding=(1,), bias=False)\n",
       "    (l2): InstanceNorm1d(8, eps=1e-05, momentum=0.1, affine=False, track_running_stats=False)\n",
       "    (r1): Identity()\n",
       "    (r2): AvgPool1d(kernel_size=(2,), stride=(2,), padding=(0,))\n",
       "    (r3): Conv1d(8, 8, kernel_size=(1,), stride=(1,), bias=False)\n",
       "    (r4): InstanceNorm1d(8, eps=1e-05, momentum=0.1, affine=False, track_running_stats=False)\n",
       "    (relu): ReLU()\n",
       "  )\n",
       "  (r4): Res1d(\n",
       "    (l1): Conv1d(8, 16, kernel_size=(3,), stride=(1,), padding=(1,), bias=False)\n",
       "    (l2): InstanceNorm1d(16, eps=1e-05, momentum=0.1, affine=False, track_running_stats=False)\n",
       "    (r3): Conv1d(8, 16, kernel_size=(1,), stride=(1,), bias=False)\n",
       "    (r4): InstanceNorm1d(16, eps=1e-05, momentum=0.1, affine=False, track_running_stats=False)\n",
       "    (relu): ReLU()\n",
       "  )\n",
       "  (r5): Res1d(\n",
       "    (l1): Conv1d(16, 16, kernel_size=(3,), stride=(2,), bias=False)\n",
       "    (l2): InstanceNorm1d(16, eps=1e-05, momentum=0.1, affine=False, track_running_stats=False)\n",
       "    (r1): Identity()\n",
       "    (r2): AvgPool1d(kernel_size=(2,), stride=(2,), padding=(0,))\n",
       "    (r3): Conv1d(16, 16, kernel_size=(1,), stride=(1,), bias=False)\n",
       "    (r4): InstanceNorm1d(16, eps=1e-05, momentum=0.1, affine=False, track_running_stats=False)\n",
       "    (relu): ReLU()\n",
       "  )\n",
       "  (r6): Res1d(\n",
       "    (l1): Conv1d(16, 32, kernel_size=(3,), stride=(1,), padding=(1,), bias=False)\n",
       "    (l2): InstanceNorm1d(32, eps=1e-05, momentum=0.1, affine=False, track_running_stats=False)\n",
       "    (r3): Conv1d(16, 32, kernel_size=(1,), stride=(1,), bias=False)\n",
       "    (r4): InstanceNorm1d(32, eps=1e-05, momentum=0.1, affine=False, track_running_stats=False)\n",
       "    (relu): ReLU()\n",
       "  )\n",
       "  (r7): Res1d(\n",
       "    (l1): Conv1d(32, 32, kernel_size=(3,), stride=(2,), padding=(1,), bias=False)\n",
       "    (l2): InstanceNorm1d(32, eps=1e-05, momentum=0.1, affine=False, track_running_stats=False)\n",
       "    (r1): Identity()\n",
       "    (r2): AvgPool1d(kernel_size=(2,), stride=(2,), padding=(0,))\n",
       "    (r3): Conv1d(32, 32, kernel_size=(1,), stride=(1,), bias=False)\n",
       "    (r4): InstanceNorm1d(32, eps=1e-05, momentum=0.1, affine=False, track_running_stats=False)\n",
       "    (relu): ReLU()\n",
       "  )\n",
       "  (r8): Res1d(\n",
       "    (l1): Conv1d(32, 64, kernel_size=(3,), stride=(1,), padding=(1,), bias=False)\n",
       "    (l2): InstanceNorm1d(64, eps=1e-05, momentum=0.1, affine=False, track_running_stats=False)\n",
       "    (r3): Conv1d(32, 64, kernel_size=(1,), stride=(1,), bias=False)\n",
       "    (r4): InstanceNorm1d(64, eps=1e-05, momentum=0.1, affine=False, track_running_stats=False)\n",
       "    (relu): ReLU()\n",
       "  )\n",
       "  (r9): Res1d(\n",
       "    (l1): Conv1d(64, 64, kernel_size=(3,), stride=(2,), bias=False)\n",
       "    (l2): InstanceNorm1d(64, eps=1e-05, momentum=0.1, affine=False, track_running_stats=False)\n",
       "    (r1): Identity()\n",
       "    (r2): AvgPool1d(kernel_size=(2,), stride=(2,), padding=(0,))\n",
       "    (r3): Conv1d(64, 64, kernel_size=(1,), stride=(1,), bias=False)\n",
       "    (r4): InstanceNorm1d(64, eps=1e-05, momentum=0.1, affine=False, track_running_stats=False)\n",
       "    (relu): ReLU()\n",
       "  )\n",
       "  (r10): Res1d(\n",
       "    (l1): Conv1d(64, 128, kernel_size=(3,), stride=(1,), padding=(1,), bias=False)\n",
       "    (l2): InstanceNorm1d(128, eps=1e-05, momentum=0.1, affine=False, track_running_stats=False)\n",
       "    (r3): Conv1d(64, 128, kernel_size=(1,), stride=(1,), bias=False)\n",
       "    (r4): InstanceNorm1d(128, eps=1e-05, momentum=0.1, affine=False, track_running_stats=False)\n",
       "    (relu): ReLU()\n",
       "  )\n",
       "  (r11): Res1d(\n",
       "    (l1): Conv1d(128, 128, kernel_size=(3,), stride=(2,), bias=False)\n",
       "    (l2): InstanceNorm1d(128, eps=1e-05, momentum=0.1, affine=False, track_running_stats=False)\n",
       "    (r1): Identity()\n",
       "    (r2): AvgPool1d(kernel_size=(2,), stride=(2,), padding=(0,))\n",
       "    (r3): Conv1d(128, 128, kernel_size=(1,), stride=(1,), bias=False)\n",
       "    (r4): InstanceNorm1d(128, eps=1e-05, momentum=0.1, affine=False, track_running_stats=False)\n",
       "    (relu): ReLU()\n",
       "  )\n",
       "  (r12): Res1d(\n",
       "    (l1): Conv1d(128, 256, kernel_size=(3,), stride=(1,), padding=(1,), bias=False)\n",
       "    (l2): InstanceNorm1d(256, eps=1e-05, momentum=0.1, affine=False, track_running_stats=False)\n",
       "    (r3): Conv1d(128, 256, kernel_size=(1,), stride=(1,), bias=False)\n",
       "    (r4): InstanceNorm1d(256, eps=1e-05, momentum=0.1, affine=False, track_running_stats=False)\n",
       "    (relu): ReLU()\n",
       "  )\n",
       "  (r13): Res1d(\n",
       "    (l1): Conv1d(256, 256, kernel_size=(3,), stride=(2,), padding=(1,), bias=False)\n",
       "    (l2): InstanceNorm1d(256, eps=1e-05, momentum=0.1, affine=False, track_running_stats=False)\n",
       "    (r1): Identity()\n",
       "    (r2): AvgPool1d(kernel_size=(2,), stride=(2,), padding=(0,))\n",
       "    (r3): Conv1d(256, 256, kernel_size=(1,), stride=(1,), bias=False)\n",
       "    (r4): InstanceNorm1d(256, eps=1e-05, momentum=0.1, affine=False, track_running_stats=False)\n",
       "    (relu): ReLU()\n",
       "  )\n",
       "  (r14): Res1d(\n",
       "    (l1): Conv1d(256, 512, kernel_size=(3,), stride=(1,), padding=(1,), bias=False)\n",
       "    (l2): InstanceNorm1d(512, eps=1e-05, momentum=0.1, affine=False, track_running_stats=False)\n",
       "    (r3): Conv1d(256, 512, kernel_size=(1,), stride=(1,), bias=False)\n",
       "    (r4): InstanceNorm1d(512, eps=1e-05, momentum=0.1, affine=False, track_running_stats=False)\n",
       "    (relu): ReLU()\n",
       "  )\n",
       "  (r15): Res1d(\n",
       "    (l1): Conv1d(512, 512, kernel_size=(3,), stride=(2,), bias=False)\n",
       "    (l2): InstanceNorm1d(512, eps=1e-05, momentum=0.1, affine=False, track_running_stats=False)\n",
       "    (r1): Identity()\n",
       "    (r2): AvgPool1d(kernel_size=(2,), stride=(2,), padding=(0,))\n",
       "    (r3): Conv1d(512, 512, kernel_size=(1,), stride=(1,), bias=False)\n",
       "    (r4): InstanceNorm1d(512, eps=1e-05, momentum=0.1, affine=False, track_running_stats=False)\n",
       "    (relu): ReLU()\n",
       "  )\n",
       "  (r16): Res1d(\n",
       "    (l1): Conv1d(512, 1024, kernel_size=(3,), stride=(1,), padding=(1,), bias=False)\n",
       "    (l2): InstanceNorm1d(1024, eps=1e-05, momentum=0.1, affine=False, track_running_stats=False)\n",
       "    (r3): Conv1d(512, 1024, kernel_size=(1,), stride=(1,), bias=False)\n",
       "    (r4): InstanceNorm1d(1024, eps=1e-05, momentum=0.1, affine=False, track_running_stats=False)\n",
       "    (relu): ReLU()\n",
       "  )\n",
       "  (r17): Res1d(\n",
       "    (l1): Conv1d(1024, 1024, kernel_size=(3,), stride=(2,), padding=(1,), bias=False)\n",
       "    (l2): InstanceNorm1d(1024, eps=1e-05, momentum=0.1, affine=False, track_running_stats=False)\n",
       "    (r1): Identity()\n",
       "    (r2): AvgPool1d(kernel_size=(2,), stride=(2,), padding=(0,))\n",
       "    (r3): Conv1d(1024, 1024, kernel_size=(1,), stride=(1,), bias=False)\n",
       "    (r4): InstanceNorm1d(1024, eps=1e-05, momentum=0.1, affine=False, track_running_stats=False)\n",
       "    (relu): ReLU()\n",
       "  )\n",
       "  (lastLinear): Linear(in_features=50240, out_features=32, bias=True)\n",
       "  (lastRelu): ReLU()\n",
       "  (lastAgg): Linear(in_features=32, out_features=1, bias=True)\n",
       "  (lastSigmoid): Sigmoid()\n",
       ")"
      ]
     },
     "execution_count": 11,
     "metadata": {},
     "output_type": "execute_result"
    }
   ],
   "source": [
    "# MPC learning\n",
    "net"
   ]
  },
  {
   "cell_type": "code",
   "execution_count": 12,
   "metadata": {},
   "outputs": [
    {
<<<<<<< HEAD
     "ename": "RuntimeError",
…
